************************
Number of groups: 50900
Number of node features: 768
Number of prediction classes: 2
3positives: 12291
3negatives: 6699
4to10positives: 11882
4to10negatives: 12107
above10positives: 1277
above10negatives: 6644
***********************
SmallGraphormer(
  (centrality_encoder): DegreeEncoder(
    (encoder1): Embedding(101, 768, padding_idx=0)
    (encoder2): Embedding(101, 768, padding_idx=0)
  )
  (encoder): SpatialEncoder(
    (embedding_table): Embedding(12, 8, padding_idx=0)
  )
  (transformer1): GraphormerLayer(
    (attn): BiasedMHA(
      (q_proj): Linear(in_features=768, out_features=768, bias=True)
      (k_proj): Linear(in_features=768, out_features=768, bias=True)
      (v_proj): Linear(in_features=768, out_features=768, bias=True)
      (out_proj): Linear(in_features=768, out_features=768, bias=True)
      (dropout): Dropout(p=0.2, inplace=False)
    )
    (ffn): Sequential(
      (0): Linear(in_features=768, out_features=64, bias=True)
      (1): ReLU()
      (2): Dropout(p=0.2, inplace=False)
      (3): Linear(in_features=64, out_features=768, bias=True)
      (4): Dropout(p=0.2, inplace=False)
    )
    (dropout): Dropout(p=0.2, inplace=False)
    (attn_layer_norm): LayerNorm((768,), eps=1e-05, elementwise_affine=True)
    (ffn_layer_norm): LayerNorm((768,), eps=1e-05, elementwise_affine=True)
  )
  (transformer2): GraphormerLayer(
    (attn): BiasedMHA(
      (q_proj): Linear(in_features=768, out_features=768, bias=True)
      (k_proj): Linear(in_features=768, out_features=768, bias=True)
      (v_proj): Linear(in_features=768, out_features=768, bias=True)
      (out_proj): Linear(in_features=768, out_features=768, bias=True)
      (dropout): Dropout(p=0.2, inplace=False)
    )
    (ffn): Sequential(
      (0): Linear(in_features=768, out_features=64, bias=True)
      (1): ReLU()
      (2): Dropout(p=0.2, inplace=False)
      (3): Linear(in_features=64, out_features=768, bias=True)
      (4): Dropout(p=0.2, inplace=False)
    )
    (dropout): Dropout(p=0.2, inplace=False)
    (attn_layer_norm): LayerNorm((768,), eps=1e-05, elementwise_affine=True)
    (ffn_layer_norm): LayerNorm((768,), eps=1e-05, elementwise_affine=True)
  )
  (transformer3): GraphormerLayer(
    (attn): BiasedMHA(
      (q_proj): Linear(in_features=768, out_features=768, bias=True)
      (k_proj): Linear(in_features=768, out_features=768, bias=True)
      (v_proj): Linear(in_features=768, out_features=768, bias=True)
      (out_proj): Linear(in_features=768, out_features=768, bias=True)
      (dropout): Dropout(p=0.2, inplace=False)
    )
    (ffn): Sequential(
      (0): Linear(in_features=768, out_features=64, bias=True)
      (1): ReLU()
      (2): Dropout(p=0.2, inplace=False)
      (3): Linear(in_features=64, out_features=768, bias=True)
      (4): Dropout(p=0.2, inplace=False)
    )
    (dropout): Dropout(p=0.2, inplace=False)
    (attn_layer_norm): LayerNorm((768,), eps=1e-05, elementwise_affine=True)
    (ffn_layer_norm): LayerNorm((768,), eps=1e-05, elementwise_affine=True)
  )
  (transformer4): GraphormerLayer(
    (attn): BiasedMHA(
      (q_proj): Linear(in_features=768, out_features=768, bias=True)
      (k_proj): Linear(in_features=768, out_features=768, bias=True)
      (v_proj): Linear(in_features=768, out_features=768, bias=True)
      (out_proj): Linear(in_features=768, out_features=768, bias=True)
      (dropout): Dropout(p=0.2, inplace=False)
    )
    (ffn): Sequential(
      (0): Linear(in_features=768, out_features=64, bias=True)
      (1): ReLU()
      (2): Dropout(p=0.2, inplace=False)
      (3): Linear(in_features=64, out_features=768, bias=True)
      (4): Dropout(p=0.2, inplace=False)
    )
    (dropout): Dropout(p=0.2, inplace=False)
    (attn_layer_norm): LayerNorm((768,), eps=1e-05, elementwise_affine=True)
    (ffn_layer_norm): LayerNorm((768,), eps=1e-05, elementwise_affine=True)
  )
  (transformer5): GraphormerLayer(
    (attn): BiasedMHA(
      (q_proj): Linear(in_features=768, out_features=768, bias=True)
      (k_proj): Linear(in_features=768, out_features=768, bias=True)
      (v_proj): Linear(in_features=768, out_features=768, bias=True)
      (out_proj): Linear(in_features=768, out_features=768, bias=True)
      (dropout): Dropout(p=0.2, inplace=False)
    )
    (ffn): Sequential(
      (0): Linear(in_features=768, out_features=64, bias=True)
      (1): ReLU()
      (2): Dropout(p=0.2, inplace=False)
      (3): Linear(in_features=64, out_features=768, bias=True)
      (4): Dropout(p=0.2, inplace=False)
    )
    (dropout): Dropout(p=0.2, inplace=False)
    (attn_layer_norm): LayerNorm((768,), eps=1e-05, elementwise_affine=True)
    (ffn_layer_norm): LayerNorm((768,), eps=1e-05, elementwise_affine=True)
  )
  (transformer6): GraphormerLayer(
    (attn): BiasedMHA(
      (q_proj): Linear(in_features=768, out_features=768, bias=True)
      (k_proj): Linear(in_features=768, out_features=768, bias=True)
      (v_proj): Linear(in_features=768, out_features=768, bias=True)
      (out_proj): Linear(in_features=768, out_features=768, bias=True)
      (dropout): Dropout(p=0.2, inplace=False)
    )
    (ffn): Sequential(
      (0): Linear(in_features=768, out_features=64, bias=True)
      (1): ReLU()
      (2): Dropout(p=0.2, inplace=False)
      (3): Linear(in_features=64, out_features=768, bias=True)
      (4): Dropout(p=0.2, inplace=False)
    )
    (dropout): Dropout(p=0.2, inplace=False)
    (attn_layer_norm): LayerNorm((768,), eps=1e-05, elementwise_affine=True)
    (ffn_layer_norm): LayerNorm((768,), eps=1e-05, elementwise_affine=True)
  )
  (classifier): Linear(in_features=768, out_features=1, bias=True)
)
AdamW (
Parameter Group 0
    amsgrad: False
    betas: (0.9, 0.999)
    capturable: False
    differentiable: False
    eps: 1e-08
    foreach: None
    fused: None
    lr: 0.0001
    maximize: False
    weight_decay: 0.01
)
batch accumulation: 1
batch size: 128
EPOCH 001 -> Loss[Train:0.6202; Valid:0.5924] - Accuracy[Train:64.6005; Valid:67.1218]
…
